2023-04-04 12:09:52 AFAL_Transformer(
  (embeddings): ModuleDict(
    (conditions): Embedding(1674, 256, padding_idx=0)
    (procedures): Embedding(571, 256, padding_idx=0)
    (drugs): Embedding(178, 256, padding_idx=0)
  )
  (linear_layers): ModuleDict()
  (transformer): ModuleDict(
    (conditions): TransformerLayer(
      (transformer): ModuleList(
        (0): TransformerBlock(
          (attention): MultiHeadedAttention(
            (linear_layers): ModuleList(
              (0): Linear(in_features=256, out_features=256, bias=False)
              (1): Linear(in_features=256, out_features=256, bias=False)
              (2): Linear(in_features=256, out_features=256, bias=False)
            )
            (output_linear): Linear(in_features=256, out_features=256, bias=False)
            (attention): Attention()
            (dropout): Dropout(p=0.1, inplace=False)
          )
          (feed_forward): PositionwiseFeedForward(
            (w_1): Linear(in_features=256, out_features=1024, bias=True)
            (w_2): Linear(in_features=1024, out_features=256, bias=True)
            (dropout): Dropout(p=0.5, inplace=False)
            (activation): GELU(approximate='none')
          )
          (input_sublayer): SublayerConnection(
            (norm): LayerNorm((256,), eps=1e-05, elementwise_affine=True)
            (dropout): Dropout(p=0.5, inplace=False)
          )
          (output_sublayer): SublayerConnection(
            (norm): LayerNorm((256,), eps=1e-05, elementwise_affine=True)
            (dropout): Dropout(p=0.5, inplace=False)
          )
          (dropout): Dropout(p=0.5, inplace=False)
        )
      )
    )
    (procedures): TransformerLayer(
      (transformer): ModuleList(
        (0): TransformerBlock(
          (attention): MultiHeadedAttention(
            (linear_layers): ModuleList(
              (0): Linear(in_features=256, out_features=256, bias=False)
              (1): Linear(in_features=256, out_features=256, bias=False)
              (2): Linear(in_features=256, out_features=256, bias=False)
            )
            (output_linear): Linear(in_features=256, out_features=256, bias=False)
            (attention): Attention()
            (dropout): Dropout(p=0.1, inplace=False)
          )
          (feed_forward): PositionwiseFeedForward(
            (w_1): Linear(in_features=256, out_features=1024, bias=True)
            (w_2): Linear(in_features=1024, out_features=256, bias=True)
            (dropout): Dropout(p=0.5, inplace=False)
            (activation): GELU(approximate='none')
          )
          (input_sublayer): SublayerConnection(
            (norm): LayerNorm((256,), eps=1e-05, elementwise_affine=True)
            (dropout): Dropout(p=0.5, inplace=False)
          )
          (output_sublayer): SublayerConnection(
            (norm): LayerNorm((256,), eps=1e-05, elementwise_affine=True)
            (dropout): Dropout(p=0.5, inplace=False)
          )
          (dropout): Dropout(p=0.5, inplace=False)
        )
      )
    )
    (drugs): TransformerLayer(
      (transformer): ModuleList(
        (0): TransformerBlock(
          (attention): MultiHeadedAttention(
            (linear_layers): ModuleList(
              (0): Linear(in_features=256, out_features=256, bias=False)
              (1): Linear(in_features=256, out_features=256, bias=False)
              (2): Linear(in_features=256, out_features=256, bias=False)
            )
            (output_linear): Linear(in_features=256, out_features=256, bias=False)
            (attention): Attention()
            (dropout): Dropout(p=0.1, inplace=False)
          )
          (feed_forward): PositionwiseFeedForward(
            (w_1): Linear(in_features=256, out_features=1024, bias=True)
            (w_2): Linear(in_features=1024, out_features=256, bias=True)
            (dropout): Dropout(p=0.5, inplace=False)
            (activation): GELU(approximate='none')
          )
          (input_sublayer): SublayerConnection(
            (norm): LayerNorm((256,), eps=1e-05, elementwise_affine=True)
            (dropout): Dropout(p=0.5, inplace=False)
          )
          (output_sublayer): SublayerConnection(
            (norm): LayerNorm((256,), eps=1e-05, elementwise_affine=True)
            (dropout): Dropout(p=0.5, inplace=False)
          )
          (dropout): Dropout(p=0.5, inplace=False)
        )
      )
    )
  )
  (fc): Linear(in_features=768, out_features=2, bias=True)
  (sens_fc): ModuleList(
    (0): Sequential(
      (0): Linear(in_features=2, out_features=100, bias=True)
      (1): LeakyReLU(negative_slope=0.01)
      (2): Linear(in_features=100, out_features=2, bias=True)
    )
    (1): Sequential(
      (0): Linear(in_features=2, out_features=100, bias=True)
      (1): LeakyReLU(negative_slope=0.01)
      (2): Linear(in_features=100, out_features=2, bias=True)
    )
  )
)
2023-04-04 12:09:52 Metrics: ['roc_auc_macro_ovo']
2023-04-04 12:09:52 Device: cuda:0
2023-04-04 12:09:52 
2023-04-04 12:09:58 Training:
2023-04-04 12:09:58 Batch size: 3200
2023-04-04 12:09:58 Optimizer: <class 'torch.optim.adam.Adam'>
2023-04-04 12:09:58 Optimizer params: {'lr': 0.0001}
2023-04-04 12:09:58 Weight decay: 0.0
2023-04-04 12:09:58 Max grad norm: None
…
